Model: "functional"
┏━━━━━━━━━━━━━━━━━━━━━━━━━━━━━━━━━━━━━━┳━━━━━━━━━━━━━━━━━━━━━━━━━━━━━┳━━━━━━━━━━━━━━━━━┓
┃ Layer (type)                         ┃ Output Shape                ┃         Param # ┃
┡━━━━━━━━━━━━━━━━━━━━━━━━━━━━━━━━━━━━━━╇━━━━━━━━━━━━━━━━━━━━━━━━━━━━━╇━━━━━━━━━━━━━━━━━┩
│ input_layer (InputLayer)             │ (None, 50)                  │               0 │
├──────────────────────────────────────┼─────────────────────────────┼─────────────────┤
│ embedding (Embedding)                │ (None, 50, 128)             │         115,200 │
├──────────────────────────────────────┼─────────────────────────────┼─────────────────┤
│ lstm (LSTM)                          │ (None, 256)                 │         394,240 │
├──────────────────────────────────────┼─────────────────────────────┼─────────────────┤
│ repeat_vector (RepeatVector)         │ (None, 2, 256)              │               0 │
├──────────────────────────────────────┼─────────────────────────────┼─────────────────┤
│ dense (Dense)                        │ (None, 2, 256)              │          65,792 │
├──────────────────────────────────────┼─────────────────────────────┼─────────────────┤
│ dense_1 (Dense)                      │ (None, 2, 900)              │         231,300 │
└──────────────────────────────────────┴─────────────────────────────┴─────────────────┘
 Total params: 806,532 (3.08 MB)
 Trainable params: 806,532 (3.08 MB)
 Non-trainable params: 0 (0.00 B)
Epoch 1/100
2024-08-26 14:37:27.240951: I external/local_xla/xla/stream_executor/cuda/cuda_dnn.cc:531] Loaded cuDNN version 8906
129/129 ━━━━━━━━━━━━━━━━━━━━ 5s 24ms/step - accuracy: 0.4390 - loss: 4.7347 - val_accuracy: 0.4630 - val_loss: 4.1028
…
